2024-09-03 10:50:09,118 - train - INFO - Model ResNet18 created, param count:11220132
2024-09-03 10:50:09,844 - train - INFO - ResNet(
  (relu): ReLU(
    (quan_a_fn): LsqQuantizer(bit=32, pos=4294967295, neg=0, norm=(False, 1e-05, 1.0), all_positive=True, symmetric=False, per_channel=False, apot=False )
  )
  (conv1): Conv2d(3, 64, kernel_size=(3, 3), stride=(1, 1), padding=(1, 1), bias=False)
  (bn1): BatchNorm2d(64, eps=1e-05, momentum=0.1, affine=True, track_running_stats=True)
  (convbn_first): QConvBn2d(
    3, 64, kernel_size=(3, 3), stride=(1, 1), padding=(1, 1), bias=False
    (quan_w_fn): LsqQuantizer(bit=32, pos=2147483647, neg=-2147483647, norm=(False, 1e-05, 1.0), all_positive=False, symmetric=True, per_channel=True, apot=True )
    (quan_a_fn): LsqQuantizer(bit=32, pos=2147483647, neg=-2147483647, norm=(False, 1e-05, 1.0), all_positive=False, symmetric=True, per_channel=False, apot=False )
    (bn): BatchNorm2d(64, eps=1e-05, momentum=0.1, affine=True, track_running_stats=True)
  )
  (layer1): Sequential(
    (0): BasicBlock(
      (conv1): Conv2d(64, 64, kernel_size=(3, 3), stride=(1, 1), padding=(1, 1), bias=False)
      (bn1): BatchNorm2d(64, eps=1e-05, momentum=0.1, affine=True, track_running_stats=True)
      (convbn1): QConvBn2d(
        64, 64, kernel_size=(3, 3), stride=(1, 1), padding=(1, 1), bias=False
        (quan_w_fn): LsqQuantizer(bit=32, pos=2147483647, neg=-2147483647, norm=(False, 1e-05, 1.0), all_positive=False, symmetric=True, per_channel=True, apot=True )
        (quan_a_fn): LsqQuantizer(bit=32, pos=4294967295, neg=0, norm=(False, 1e-05, 1.0), all_positive=True, symmetric=False, per_channel=False, apot=False )
        (bn): BatchNorm2d(64, eps=1e-05, momentum=0.1, affine=True, track_running_stats=True)
      )
      (conv2): Conv2d(64, 64, kernel_size=(3, 3), stride=(1, 1), padding=(1, 1), bias=False)
      (bn2): BatchNorm2d(64, eps=1e-05, momentum=0.1, affine=True, track_running_stats=True)
      (convbn2): QConvBn2d(
        64, 64, kernel_size=(3, 3), stride=(1, 1), padding=(1, 1), bias=False
        (quan_w_fn): LsqQuantizer(bit=32, pos=2147483647, neg=-2147483647, norm=(False, 1e-05, 1.0), all_positive=False, symmetric=True, per_channel=True, apot=True )
        (quan_a_fn): LsqQuantizer(bit=32, pos=4294967295, neg=0, norm=(False, 1e-05, 1.0), all_positive=True, symmetric=False, per_channel=False, apot=False )
        (bn): BatchNorm2d(64, eps=1e-05, momentum=0.1, affine=True, track_running_stats=True)
      )
      (downsample): Sequential()
      (relu2): ReLU(
        (quan_a_fn): LsqQuantizer(bit=32, pos=4294967295, neg=0, norm=(False, 1e-05, 1.0), all_positive=True, symmetric=False, per_channel=False, apot=False )
      )
    )
    (1): BasicBlock(
      (conv1): Conv2d(64, 64, kernel_size=(3, 3), stride=(1, 1), padding=(1, 1), bias=False)
      (bn1): BatchNorm2d(64, eps=1e-05, momentum=0.1, affine=True, track_running_stats=True)
      (convbn1): QConvBn2d(
        64, 64, kernel_size=(3, 3), stride=(1, 1), padding=(1, 1), bias=False
        (quan_w_fn): LsqQuantizer(bit=32, pos=2147483647, neg=-2147483647, norm=(False, 1e-05, 1.0), all_positive=False, symmetric=True, per_channel=True, apot=True )
        (quan_a_fn): LsqQuantizer(bit=32, pos=4294967295, neg=0, norm=(False, 1e-05, 1.0), all_positive=True, symmetric=False, per_channel=False, apot=False )
        (bn): BatchNorm2d(64, eps=1e-05, momentum=0.1, affine=True, track_running_stats=True)
      )
      (conv2): Conv2d(64, 64, kernel_size=(3, 3), stride=(1, 1), padding=(1, 1), bias=False)
      (bn2): BatchNorm2d(64, eps=1e-05, momentum=0.1, affine=True, track_running_stats=True)
      (convbn2): QConvBn2d(
        64, 64, kernel_size=(3, 3), stride=(1, 1), padding=(1, 1), bias=False
        (quan_w_fn): LsqQuantizer(bit=32, pos=2147483647, neg=-2147483647, norm=(False, 1e-05, 1.0), all_positive=False, symmetric=True, per_channel=True, apot=True )
        (quan_a_fn): LsqQuantizer(bit=32, pos=4294967295, neg=0, norm=(False, 1e-05, 1.0), all_positive=True, symmetric=False, per_channel=False, apot=False )
        (bn): BatchNorm2d(64, eps=1e-05, momentum=0.1, affine=True, track_running_stats=True)
      )
      (downsample): Sequential()
      (relu2): ReLU(
        (quan_a_fn): LsqQuantizer(bit=32, pos=4294967295, neg=0, norm=(False, 1e-05, 1.0), all_positive=True, symmetric=False, per_channel=False, apot=False )
      )
    )
  )
  (layer2): Sequential(
    (0): BasicBlock(
      (conv1): Conv2d(64, 128, kernel_size=(3, 3), stride=(2, 2), padding=(1, 1), bias=False)
      (bn1): BatchNorm2d(128, eps=1e-05, momentum=0.1, affine=True, track_running_stats=True)
      (convbn1): QConvBn2d(
        64, 128, kernel_size=(3, 3), stride=(2, 2), padding=(1, 1), bias=False
        (quan_w_fn): LsqQuantizer(bit=32, pos=2147483647, neg=-2147483647, norm=(False, 1e-05, 1.0), all_positive=False, symmetric=True, per_channel=True, apot=True )
        (quan_a_fn): LsqQuantizer(bit=32, pos=4294967295, neg=0, norm=(False, 1e-05, 1.0), all_positive=True, symmetric=False, per_channel=False, apot=False )
        (bn): BatchNorm2d(128, eps=1e-05, momentum=0.1, affine=True, track_running_stats=True)
      )
      (conv2): Conv2d(128, 128, kernel_size=(3, 3), stride=(1, 1), padding=(1, 1), bias=False)
      (bn2): BatchNorm2d(128, eps=1e-05, momentum=0.1, affine=True, track_running_stats=True)
      (convbn2): QConvBn2d(
        128, 128, kernel_size=(3, 3), stride=(1, 1), padding=(1, 1), bias=False
        (quan_w_fn): LsqQuantizer(bit=32, pos=2147483647, neg=-2147483647, norm=(False, 1e-05, 1.0), all_positive=False, symmetric=True, per_channel=True, apot=True )
        (quan_a_fn): LsqQuantizer(bit=32, pos=4294967295, neg=0, norm=(False, 1e-05, 1.0), all_positive=True, symmetric=False, per_channel=False, apot=False )
        (bn): BatchNorm2d(128, eps=1e-05, momentum=0.1, affine=True, track_running_stats=True)
      )
      (downsample): Sequential(
        (0): Conv2d(64, 128, kernel_size=(1, 1), stride=(2, 2), bias=False)
        (1): BatchNorm2d(128, eps=1e-05, momentum=0.1, affine=True, track_running_stats=True)
        (quan_a_fn): LsqQuantizer(bit=32, pos=2147483647, neg=-2147483647, norm=(False, 1e-05, 1.0), all_positive=False, symmetric=True, per_channel=False, apot=False )
      )
      (relu2): ReLU(
        (quan_a_fn): LsqQuantizer(bit=32, pos=4294967295, neg=0, norm=(False, 1e-05, 1.0), all_positive=True, symmetric=False, per_channel=False, apot=False )
      )
    )
    (1): BasicBlock(
      (conv1): Conv2d(128, 128, kernel_size=(3, 3), stride=(1, 1), padding=(1, 1), bias=False)
      (bn1): BatchNorm2d(128, eps=1e-05, momentum=0.1, affine=True, track_running_stats=True)
      (convbn1): QConvBn2d(
        128, 128, kernel_size=(3, 3), stride=(1, 1), padding=(1, 1), bias=False
        (quan_w_fn): LsqQuantizer(bit=32, pos=2147483647, neg=-2147483647, norm=(False, 1e-05, 1.0), all_positive=False, symmetric=True, per_channel=True, apot=True )
        (quan_a_fn): LsqQuantizer(bit=32, pos=4294967295, neg=0, norm=(False, 1e-05, 1.0), all_positive=True, symmetric=False, per_channel=False, apot=False )
        (bn): BatchNorm2d(128, eps=1e-05, momentum=0.1, affine=True, track_running_stats=True)
      )
      (conv2): Conv2d(128, 128, kernel_size=(3, 3), stride=(1, 1), padding=(1, 1), bias=False)
      (bn2): BatchNorm2d(128, eps=1e-05, momentum=0.1, affine=True, track_running_stats=True)
      (convbn2): QConvBn2d(
        128, 128, kernel_size=(3, 3), stride=(1, 1), padding=(1, 1), bias=False
        (quan_w_fn): LsqQuantizer(bit=32, pos=2147483647, neg=-2147483647, norm=(False, 1e-05, 1.0), all_positive=False, symmetric=True, per_channel=True, apot=True )
        (quan_a_fn): LsqQuantizer(bit=32, pos=4294967295, neg=0, norm=(False, 1e-05, 1.0), all_positive=True, symmetric=False, per_channel=False, apot=False )
        (bn): BatchNorm2d(128, eps=1e-05, momentum=0.1, affine=True, track_running_stats=True)
      )
      (downsample): Sequential()
      (relu2): ReLU(
        (quan_a_fn): LsqQuantizer(bit=32, pos=4294967295, neg=0, norm=(False, 1e-05, 1.0), all_positive=True, symmetric=False, per_channel=False, apot=False )
      )
    )
  )
  (layer3): Sequential(
    (0): BasicBlock(
      (conv1): Conv2d(128, 256, kernel_size=(3, 3), stride=(2, 2), padding=(1, 1), bias=False)
      (bn1): BatchNorm2d(256, eps=1e-05, momentum=0.1, affine=True, track_running_stats=True)
      (convbn1): QConvBn2d(
        128, 256, kernel_size=(3, 3), stride=(2, 2), padding=(1, 1), bias=False
        (quan_w_fn): LsqQuantizer(bit=32, pos=2147483647, neg=-2147483647, norm=(False, 1e-05, 1.0), all_positive=False, symmetric=True, per_channel=True, apot=True )
        (quan_a_fn): LsqQuantizer(bit=32, pos=4294967295, neg=0, norm=(False, 1e-05, 1.0), all_positive=True, symmetric=False, per_channel=False, apot=False )
        (bn): BatchNorm2d(256, eps=1e-05, momentum=0.1, affine=True, track_running_stats=True)
      )
      (conv2): Conv2d(256, 256, kernel_size=(3, 3), stride=(1, 1), padding=(1, 1), bias=False)
      (bn2): BatchNorm2d(256, eps=1e-05, momentum=0.1, affine=True, track_running_stats=True)
      (convbn2): QConvBn2d(
        256, 256, kernel_size=(3, 3), stride=(1, 1), padding=(1, 1), bias=False
        (quan_w_fn): LsqQuantizer(bit=32, pos=2147483647, neg=-2147483647, norm=(False, 1e-05, 1.0), all_positive=False, symmetric=True, per_channel=True, apot=True )
        (quan_a_fn): LsqQuantizer(bit=32, pos=4294967295, neg=0, norm=(False, 1e-05, 1.0), all_positive=True, symmetric=False, per_channel=False, apot=False )
        (bn): BatchNorm2d(256, eps=1e-05, momentum=0.1, affine=True, track_running_stats=True)
      )
      (downsample): Sequential(
        (0): Conv2d(128, 256, kernel_size=(1, 1), stride=(2, 2), bias=False)
        (1): BatchNorm2d(256, eps=1e-05, momentum=0.1, affine=True, track_running_stats=True)
        (quan_a_fn): LsqQuantizer(bit=32, pos=2147483647, neg=-2147483647, norm=(False, 1e-05, 1.0), all_positive=False, symmetric=True, per_channel=False, apot=False )
      )
      (relu2): ReLU(
        (quan_a_fn): LsqQuantizer(bit=32, pos=4294967295, neg=0, norm=(False, 1e-05, 1.0), all_positive=True, symmetric=False, per_channel=False, apot=False )
      )
    )
    (1): BasicBlock(
      (conv1): Conv2d(256, 256, kernel_size=(3, 3), stride=(1, 1), padding=(1, 1), bias=False)
      (bn1): BatchNorm2d(256, eps=1e-05, momentum=0.1, affine=True, track_running_stats=True)
      (convbn1): QConvBn2d(
        256, 256, kernel_size=(3, 3), stride=(1, 1), padding=(1, 1), bias=False
        (quan_w_fn): LsqQuantizer(bit=32, pos=2147483647, neg=-2147483647, norm=(False, 1e-05, 1.0), all_positive=False, symmetric=True, per_channel=True, apot=True )
        (quan_a_fn): LsqQuantizer(bit=32, pos=4294967295, neg=0, norm=(False, 1e-05, 1.0), all_positive=True, symmetric=False, per_channel=False, apot=False )
        (bn): BatchNorm2d(256, eps=1e-05, momentum=0.1, affine=True, track_running_stats=True)
      )
      (conv2): Conv2d(256, 256, kernel_size=(3, 3), stride=(1, 1), padding=(1, 1), bias=False)
      (bn2): BatchNorm2d(256, eps=1e-05, momentum=0.1, affine=True, track_running_stats=True)
      (convbn2): QConvBn2d(
        256, 256, kernel_size=(3, 3), stride=(1, 1), padding=(1, 1), bias=False
        (quan_w_fn): LsqQuantizer(bit=32, pos=2147483647, neg=-2147483647, norm=(False, 1e-05, 1.0), all_positive=False, symmetric=True, per_channel=True, apot=True )
        (quan_a_fn): LsqQuantizer(bit=32, pos=4294967295, neg=0, norm=(False, 1e-05, 1.0), all_positive=True, symmetric=False, per_channel=False, apot=False )
        (bn): BatchNorm2d(256, eps=1e-05, momentum=0.1, affine=True, track_running_stats=True)
      )
      (downsample): Sequential()
      (relu2): ReLU(
        (quan_a_fn): LsqQuantizer(bit=32, pos=4294967295, neg=0, norm=(False, 1e-05, 1.0), all_positive=True, symmetric=False, per_channel=False, apot=False )
      )
    )
  )
  (layer4): Sequential(
    (0): BasicBlock(
      (conv1): Conv2d(256, 512, kernel_size=(3, 3), stride=(2, 2), padding=(1, 1), bias=False)
      (bn1): BatchNorm2d(512, eps=1e-05, momentum=0.1, affine=True, track_running_stats=True)
      (convbn1): QConvBn2d(
        256, 512, kernel_size=(3, 3), stride=(2, 2), padding=(1, 1), bias=False
        (quan_w_fn): LsqQuantizer(bit=32, pos=2147483647, neg=-2147483647, norm=(False, 1e-05, 1.0), all_positive=False, symmetric=True, per_channel=True, apot=True )
        (quan_a_fn): LsqQuantizer(bit=32, pos=4294967295, neg=0, norm=(False, 1e-05, 1.0), all_positive=True, symmetric=False, per_channel=False, apot=False )
        (bn): BatchNorm2d(512, eps=1e-05, momentum=0.1, affine=True, track_running_stats=True)
      )
      (conv2): Conv2d(512, 512, kernel_size=(3, 3), stride=(1, 1), padding=(1, 1), bias=False)
      (bn2): BatchNorm2d(512, eps=1e-05, momentum=0.1, affine=True, track_running_stats=True)
      (convbn2): QConvBn2d(
        512, 512, kernel_size=(3, 3), stride=(1, 1), padding=(1, 1), bias=False
        (quan_w_fn): LsqQuantizer(bit=32, pos=2147483647, neg=-2147483647, norm=(False, 1e-05, 1.0), all_positive=False, symmetric=True, per_channel=True, apot=True )
        (quan_a_fn): LsqQuantizer(bit=32, pos=4294967295, neg=0, norm=(False, 1e-05, 1.0), all_positive=True, symmetric=False, per_channel=False, apot=False )
        (bn): BatchNorm2d(512, eps=1e-05, momentum=0.1, affine=True, track_running_stats=True)
      )
      (downsample): Sequential(
        (0): Conv2d(256, 512, kernel_size=(1, 1), stride=(2, 2), bias=False)
        (1): BatchNorm2d(512, eps=1e-05, momentum=0.1, affine=True, track_running_stats=True)
        (quan_a_fn): LsqQuantizer(bit=32, pos=2147483647, neg=-2147483647, norm=(False, 1e-05, 1.0), all_positive=False, symmetric=True, per_channel=False, apot=False )
      )
      (relu2): ReLU(
        (quan_a_fn): LsqQuantizer(bit=32, pos=4294967295, neg=0, norm=(False, 1e-05, 1.0), all_positive=True, symmetric=False, per_channel=False, apot=False )
      )
    )
    (1): BasicBlock(
      (conv1): Conv2d(512, 512, kernel_size=(3, 3), stride=(1, 1), padding=(1, 1), bias=False)
      (bn1): BatchNorm2d(512, eps=1e-05, momentum=0.1, affine=True, track_running_stats=True)
      (convbn1): QConvBn2d(
        512, 512, kernel_size=(3, 3), stride=(1, 1), padding=(1, 1), bias=False
        (quan_w_fn): LsqQuantizer(bit=32, pos=2147483647, neg=-2147483647, norm=(False, 1e-05, 1.0), all_positive=False, symmetric=True, per_channel=True, apot=True )
        (quan_a_fn): LsqQuantizer(bit=32, pos=4294967295, neg=0, norm=(False, 1e-05, 1.0), all_positive=True, symmetric=False, per_channel=False, apot=False )
        (bn): BatchNorm2d(512, eps=1e-05, momentum=0.1, affine=True, track_running_stats=True)
      )
      (conv2): Conv2d(512, 512, kernel_size=(3, 3), stride=(1, 1), padding=(1, 1), bias=False)
      (bn2): BatchNorm2d(512, eps=1e-05, momentum=0.1, affine=True, track_running_stats=True)
      (convbn2): QConvBn2d(
        512, 512, kernel_size=(3, 3), stride=(1, 1), padding=(1, 1), bias=False
        (quan_w_fn): LsqQuantizer(bit=32, pos=2147483647, neg=-2147483647, norm=(False, 1e-05, 1.0), all_positive=False, symmetric=True, per_channel=True, apot=True )
        (quan_a_fn): LsqQuantizer(bit=32, pos=4294967295, neg=0, norm=(False, 1e-05, 1.0), all_positive=True, symmetric=False, per_channel=False, apot=False )
        (bn): BatchNorm2d(512, eps=1e-05, momentum=0.1, affine=True, track_running_stats=True)
      )
      (downsample): Sequential()
      (relu2): ReLU(
        (quan_a_fn): LsqQuantizer(bit=32, pos=4294967295, neg=0, norm=(False, 1e-05, 1.0), all_positive=True, symmetric=False, per_channel=False, apot=False )
      )
    )
  )
  (fc): QLinear(
    in_features=512, out_features=100, bias=True
    (quan_w_fn): LsqQuantizer(bit=32, pos=2147483647, neg=-2147483647, norm=(False, 1e-05, 1.0), all_positive=False, symmetric=True, per_channel=True, apot=True )
…
