…
ss: 54.7837 (54.7837)  Acc@1:  0.0000 ( 0.0000)  Acc@5:  0.0000 ( 0.0000)
2025-06-05 16:41:44,969 - train - INFO - Test: [  50/97]  Time: 2.160 (1.206)  Loss: 54.3785 (49.8431)  Acc@1:  0.0000 ( 0.0689)  Acc@5:  0.0000 ( 0.2949)
2025-06-05 16:43:58,060 - train - INFO - Model ResNet18 created, param count:11689512
2025-06-05 16:43:58,060 - train - INFO - Get QAT model...
2025-06-05 16:43:58,237 - train - INFO - ResNet(
  (relu): ReLU(
    (quan_a_fn): LsqQuantizer(bit=16, pos=65535, neg=0, norm=(False, 1e-05, 1.0), all_positive=True, symmetric=False, per_channel=False, apot=False )
  )
  (conv1): Conv2d(3, 64, kernel_size=(7, 7), stride=(2, 2), padding=(3, 3), bias=False)
  (maxpool): AvgPool2d(kernel_size=3, stride=2, padding=1)
  (bn1): BatchNorm2d(64, eps=1e-05, momentum=0.1, affine=True, track_running_stats=True)
  (convbn_first): QConvBn2d(
    3, 64, kernel_size=(7, 7), stride=(2, 2), padding=(3, 3), bias=False
    (quan_w_fn): LsqQuantizer(bit=8, pos=127, neg=-127, norm=(False, 1e-05, 1.0), all_positive=False, symmetric=True, per_channel=True, apot=False )
    (quan_a_fn): LsqQuantizer(bit=8, pos=127, neg=-127, norm=(False, 1e-05, 1.0), all_positive=False, symmetric=True, per_channel=False, apot=False )
    (bn): BatchNorm2d(64, eps=1e-05, momentum=0.1, affine=True, track_running_stats=True)
  )
  (layer1): Sequential(
    (0): BasicBlock(
      (conv1): Conv2d(64, 64, kernel_size=(3, 3), stride=(1, 1), padding=(1, 1), bias=False)
      (bn1): BatchNorm2d(64, eps=1e-05, momentum=0.1, affine=True, track_running_stats=True)
      (convbn1): QConvBn2d(
        64, 64, kernel_size=(3, 3), stride=(1, 1), padding=(1, 1), bias=False
        (quan_w_fn): LsqQuantizer(bit=5, pos=15, neg=-15, norm=(False, 1e-05, 1.0), all_positive=False, symmetric=True, per_channel=True, apot=False )
        (quan_a_fn): LsqQuantizer(bit=4, pos=15, neg=0, norm=(False, 1e-05, 1.0), all_positive=True, symmetric=False, per_channel=False, apot=False )
        (bn): BatchNorm2d(64, eps=1e-05, momentum=0.1, affine=True, track_running_stats=True)
      )
      (conv2): Conv2d(64, 64, kernel_size=(3, 3), stride=(1, 1), padding=(1, 1), bias=False)
      (bn2): BatchNorm2d(64, eps=1e-05, momentum=0.1, affine=True, track_running_stats=True)
      (convbn2): QConvBn2d(
        64, 64, kernel_size=(3, 3), stride=(1, 1), padding=(1, 1), bias=False
        (quan_w_fn): LsqQuantizer(bit=5, pos=15, neg=-15, norm=(False, 1e-05, 1.0), all_positive=False, symmetric=True, per_channel=True, apot=False )
        (quan_a_fn): LsqQuantizer(bit=4, pos=15, neg=0, norm=(False, 1e-05, 1.0), all_positive=True, symmetric=False, per_channel=False, apot=False )
        (bn): BatchNorm2d(64, eps=1e-05, momentum=0.1, affine=True, track_running_stats=True)
      )
      (downsample): Sequential()
      (relu2): ReLU(
        (quan_a_fn): LsqQuantizer(bit=16, pos=65535, neg=0, norm=(False, 1e-05, 1.0), all_positive=True, symmetric=False, per_channel=False, apot=False )
      )
    )
    (1): BasicBlock(
      (conv1): Conv2d(64, 64, kernel_size=(3, 3), stride=(1, 1), padding=(1, 1), bias=False)
      (bn1): BatchNorm2d(64, eps=1e-05, momentum=0.1, affine=True, track_running_stats=True)
      (convbn1): QConvBn2d(
        64, 64, kernel_size=(3, 3), stride=(1, 1), padding=(1, 1), bias=False
        (quan_w_fn): LsqQuantizer(bit=5, pos=15, neg=-15, norm=(False, 1e-05, 1.0), all_positive=False, symmetric=True, per_channel=True, apot=False )
        (quan_a_fn): LsqQuantizer(bit=4, pos=15, neg=0, norm=(False, 1e-05, 1.0), all_positive=True, symmetric=False, per_channel=False, apot=False )
        (bn): BatchNorm2d(64, eps=1e-05, momentum=0.1, affine=True, track_running_stats=True)
      )
      (conv2): Conv2d(64, 64, kernel_size=(3, 3), stride=(1, 1), padding=(1, 1), bias=False)
      (bn2): BatchNorm2d(64, eps=1e-05, momentum=0.1, affine=True, track_running_stats=True)
      (convbn2): QConvBn2d(
        64, 64, kernel_size=(3, 3), stride=(1, 1), padding=(1, 1), bias=False
        (quan_w_fn): LsqQuantizer(bit=5, pos=15, neg=-15, norm=(False, 1e-05, 1.0), all_positive=False, symmetric=True, per_channel=True, apot=False )
        (quan_a_fn): LsqQuantizer(bit=4, pos=15, neg=0, norm=(False, 1e-05, 1.0), all_positive=True, symmetric=False, per_channel=False, apot=False )
        (bn): BatchNorm2d(64, eps=1e-05, momentum=0.1, affine=True, track_running_stats=True)
      )
      (downsample): Sequential()
      (relu2): ReLU(
        (quan_a_fn): LsqQuantizer(bit=16, pos=65535, neg=0, norm=(False, 1e-05, 1.0), all_positive=True, symmetric=False, per_channel=False, apot=False )
      )
    )
  )
  (layer2): Sequential(
    (0): BasicBlock(
      (conv1): Conv2d(64, 128, kernel_size=(3, 3), stride=(2, 2), padding=(1, 1), bias=False)
      (bn1): BatchNorm2d(128, eps=1e-05, momentum=0.1, affine=True, track_running_stats=True)
      (convbn1): QConvBn2d(
        64, 128, kernel_size=(3, 3), stride=(2, 2), padding=(1, 1), bias=False
        (quan_w_fn): LsqQuantizer(bit=5, pos=15, neg=-15, norm=(False, 1e-05, 1.0), all_positive=False, symmetric=True, per_channel=True, apot=False )
        (quan_a_fn): LsqQuantizer(bit=4, pos=15, neg=0, norm=(False, 1e-05, 1.0), all_positive=True, symmetric=False, per_channel=False, apot=False )
        (bn): BatchNorm2d(128, eps=1e-05, momentum=0.1, affine=True, track_running_stats=True)
      )
      (conv2): Conv2d(128, 128, kernel_size=(3, 3), stride=(1, 1), padding=(1, 1), bias=False)
      (bn2): BatchNorm2d(128, eps=1e-05, momentum=0.1, affine=True, track_running_stats=True)
      (convbn2): QConvBn2d(
        128, 128, kernel_size=(3, 3), stride=(1, 1), padding=(1, 1), bias=False
        (quan_w_fn): LsqQuantizer(bit=4, pos=7, neg=-7, norm=(False, 1e-05, 1.0), all_positive=False, symmetric=True, per_channel=True, apot=False )
        (quan_a_fn): LsqQuantizer(bit=4, pos=15, neg=0, norm=(False, 1e-05, 1.0), all_positive=True, symmetric=False, per_channel=False, apot=False )
        (bn): BatchNorm2d(128, eps=1e-05, momentum=0.1, affine=True, track_running_stats=True)
      )
      (downsample): Sequential(
        (0): Conv2d(64, 128, kernel_size=(1, 1), stride=(2, 2), bias=False)
        (1): BatchNorm2d(128, eps=1e-05, momentum=0.1, affine=True, track_running_stats=True)
      )
      (relu2): ReLU(
        (quan_a_fn): LsqQuantizer(bit=16, pos=65535, neg=0, norm=(False, 1e-05, 1.0), all_positive=True, symmetric=False, per_channel=False, apot=False )
      )
    )
    (1): BasicBlock(
      (conv1): Conv2d(128, 128, kernel_size=(3, 3), stride=(1, 1), padding=(1, 1), bias=False)
      (bn1): BatchNorm2d(128, eps=1e-05, momentum=0.1, affine=True, track_running_stats=True)
      (convbn1): QConvBn2d(
        128, 128, kernel_size=(3, 3), stride=(1, 1), padding=(1, 1), bias=False
        (quan_w_fn): LsqQuantizer(bit=4, pos=7, neg=-7, norm=(False, 1e-05, 1.0), all_positive=False, symmetric=True, per_channel=True, apot=False )
        (quan_a_fn): LsqQuantizer(bit=4, pos=15, neg=0, norm=(False, 1e-05, 1.0), all_positive=True, symmetric=False, per_channel=False, apot=False )
        (bn): BatchNorm2d(128, eps=1e-05, momentum=0.1, affine=True, track_running_stats=True)
      )
      (conv2): Conv2d(128, 128, kernel_size=(3, 3), stride=(1, 1), padding=(1, 1), bias=False)
      (bn2): BatchNorm2d(128, eps=1e-05, momentum=0.1, affine=True, track_running_stats=True)
      (convbn2): QConvBn2d(
        128, 128, kernel_size=(3, 3), stride=(1, 1), padding=(1, 1), bias=False
        (quan_w_fn): LsqQuantizer(bit=3, pos=3, neg=-3, norm=(False, 1e-05, 1.0), all_positive=False, symmetric=True, per_channel=True, apot=False )
        (quan_a_fn): LsqQuantizer(bit=4, pos=15, neg=0, norm=(False, 1e-05, 1.0), all_positive=True, symmetric=False, per_channel=False, apot=False )
        (bn): BatchNorm2d(128, eps=1e-05, momentum=0.1, affine=True, track_running_stats=True)
      )
      (downsample): Sequential()
      (relu2): ReLU(
        (quan_a_fn): LsqQuantizer(bit=16, pos=65535, neg=0, norm=(False, 1e-05, 1.0), all_positive=True, symmetric=False, per_channel=False, apot=False )
      )
    )
  )
  (layer3): Sequential(
    (0): BasicBlock(
      (conv1): Conv2d(128, 256, kernel_size=(3, 3), stride=(2, 2), padding=(1, 1), bias=False)
      (bn1): BatchNorm2d(256, eps=1e-05, momentum=0.1, affine=True, track_running_stats=True)
      (convbn1): QConvBn2d(
        128, 256, kernel_size=(3, 3), stride=(2, 2), padding=(1, 1), bias=False
        (quan_w_fn): LsqQuantizer(bit=4, pos=7, neg=-7, norm=(False, 1e-05, 1.0), all_positive=False, symmetric=True, per_channel=True, apot=False )
        (quan_a_fn): LsqQuantizer(bit=4, pos=15, neg=0, norm=(False, 1e-05, 1.0), all_positive=True, symmetric=False, per_channel=False, apot=False )
        (bn): BatchNorm2d(256, eps=1e-05, momentum=0.1, affine=True, track_running_stats=True)
      )
      (conv2): Conv2d(256, 256, kernel_size=(3, 3), stride=(1, 1), padding=(1, 1), bias=False)
      (bn2): BatchNorm2d(256, eps=1e-05, momentum=0.1, affine=True, track_running_stats=True)
      (convbn2): QConvBn2d(
        256, 256, kernel_size=(3, 3), stride=(1, 1), padding=(1, 1), bias=False
        (quan_w_fn): LsqQuantizer(bit=3, pos=3, neg=-3, norm=(False, 1e-05, 1.0), all_positive=False, symmetric=True, per_channel=True, apot=False )
        (quan_a_fn): LsqQuantizer(bit=4, pos=15, neg=0, norm=(False, 1e-05, 1.0), all_positive=True, symmetric=False, per_channel=False, apot=False )
        (bn): BatchNorm2d(256, eps=1e-05, momentum=0.1, affine=True, track_running_stats=True)
      )
      (downsample): Sequential(
        (0): Conv2d(128, 256, kernel_size=(1, 1), stride=(2, 2), bias=False)
        (1): BatchNorm2d(256, eps=1e-05, momentum=0.1, affine=True, track_running_stats=True)
        (quan_a_fn): LsqQuantizer(bit=16, pos=32767, neg=-32767, norm=(False, 1e-05, 1.0), all_positive=False, symmetric=True, per_channel=False, apot=False )
      )
      (relu2): ReLU(
        (quan_a_fn): LsqQuantizer(bit=16, pos=65535, neg=0, norm=(False, 1e-05, 1.0), all_positive=True, symmetric=False, per_channel=False, apot=False )
      )
    )
    (1): BasicBlock(
      (conv1): Conv2d(256, 256, kernel_size=(3, 3), stride=(1, 1), padding=(1, 1), bias=False)
      (bn1): BatchNorm2d(256, eps=1e-05, momentum=0.1, affine=True, track_running_stats=True)
      (convbn1): QConvBn2d(
        256, 256, kernel_size=(3, 3), stride=(1, 1), padding=(1, 1), bias=False
        (quan_w_fn): LsqQuantizer(bit=3, pos=3, neg=-3, norm=(False, 1e-05, 1.0), all_positive=False, symmetric=True, per_channel=True, apot=False )
        (quan_a_fn): LsqQuantizer(bit=3, pos=7, neg=0, norm=(False, 1e-05, 1.0), all_positive=True, symmetric=False, per_channel=False, apot=False )
        (bn): BatchNorm2d(256, eps=1e-05, momentum=0.1, affine=True, track_running_stats=True)
      )
      (conv2): Conv2d(256, 256, kernel_size=(3, 3), stride=(1, 1), padding=(1, 1), bias=False)
      (bn2): BatchNorm2d(256, eps=1e-05, momentum=0.1, affine=True, track_running_stats=True)
      (convbn2): QConvBn2d(
        256, 256, kernel_size=(3, 3), stride=(1, 1), padding=(1, 1), bias=False
        (quan_w_fn): LsqQuantizer(bit=3, pos=3, neg=-3, norm=(False, 1e-05, 1.0), all_positive=False, symmetric=True, per_channel=True, apot=False )
        (quan_a_fn): LsqQuantizer(bit=3, pos=7, neg=0, norm=(False, 1e-05, 1.0), all_positive=True, symmetric=False, per_channel=False, apot=False )
        (bn): BatchNorm2d(256, eps=1e-05, momentum=0.1, affine=True, track_running_stats=True)
      )
      (downsample): Sequential()
      (relu2): ReLU(
        (quan_a_fn): LsqQuantizer(bit=16, pos=65535, neg=0, norm=(False, 1e-05, 1.0), all_positive=True, symmetric=False, per_channel=False, apot=False )
      )
    )
  )
  (layer4): Sequential(
    (0): BasicBlock(
      (conv1): Conv2d(256, 512, kernel_size=(3, 3), stride=(2, 2), padding=(1, 1), bias=False)
      (bn1): BatchNorm2d(512, eps=1e-05, momentum=0.1, affine=True, track_running_stats=True)
      (convbn1): QConvBn2d(
        256, 512, kernel_size=(3, 3), stride=(2, 2), padding=(1, 1), bias=False
        (quan_w_fn): LsqQuantizer(bit=3, pos=3, neg=-3, norm=(False, 1e-05, 1.0), all_positive=False, symmetric=True, per_channel=True, apot=False )
        (quan_a_fn): LsqQuantizer(bit=3, pos=7, neg=0, norm=(False, 1e-05, 1.0), all_positive=True, symmetric=False, per_channel=False, apot=False )
        (bn): BatchNorm2d(512, eps=1e-05, momentum=0.1, affine=True, track_running_stats=True)
      )
      (conv2): Conv2d(512, 512, kernel_size=(3, 3), stride=(1, 1), padding=(1, 1), bias=False)
      (bn2): BatchNorm2d(512, eps=1e-05, momentum=0.1, affine=True, track_running_stats=True)
      (convbn2): QConvBn2d(
        512, 512, kernel_size=(3, 3), stride=(1, 1), padding=(1, 1), bias=False
        (quan_w_fn): LsqQuantizer(bit=2, pos=1, neg=-1, norm=(False, 1e-05, 1.0), all_positive=False, symmetric=True, per_channel=True, apot=False )
        (quan_a_fn): LsqQuantizer(bit=3, pos=7, neg=0, norm=(False, 1e-05, 1.0), all_positive=True, symmetric=False, per_channel=False, apot=False )
        (bn): BatchNorm2d(512, eps=1e-05, momentum=0.1, affine=True, track_running_stats=True)
      )
      (downsample): Sequential(
        (0): Conv2d(256, 512, kernel_size=(1, 1), stride=(2, 2), bias=False)
        (1): BatchNorm2d(512, eps=1e-05, momentum=0.1, affine=True, track_running_stats=True)
        (quan_a_fn): LsqQuantizer(bit=16, pos=32767, neg=-32767, norm=(False, 1e-05, 1.0), all_positive=False, symmetric=True, per_channel=False, apot=False )
      )
      (relu2): ReLU(
        (quan_a_fn): LsqQuantizer(bit=16, pos=65535, neg=0, norm=(False, 1e-05, 1.0), all_positive=True, symmetric=False, per_channel=False, apot=False )
      )
    )
    (1): BasicBlock(
      (conv1): Conv2d(512, 512, kernel_size=(3, 3), stride=(1, 1), padding=(1, 1), bias=False)
      (bn1): BatchNorm2d(512, eps=1e-05, momentum=0.1, affine=True, track_running_stats=True)
      (convbn1): QConvBn2d(
        512, 512, kernel_size=(3, 3), stride=(1, 1), padding=(1, 1), bias=False
        (quan_w_fn): LsqQuantizer(bit=2, pos=1, neg=-1, norm=(False, 1e-05, 1.0), all_positive=False, symmetric=True, per_channel=True, apot=False )
        (quan_a_fn): LsqQuantizer(bit=3, pos=7, neg=0, norm=(False, 1e-05, 1.0), all_positive=True, symmetric=False, per_channel=False, apot=False )
        (bn): BatchNorm2d(512, eps=1e-05, momentum=0.1, affine=True, track_running_stats=True)
      )
      (conv2): Conv2d(512, 512, kernel_size=(3, 3), stride=(1, 1), padding=(1, 1), bias=False)
      (bn2): BatchNorm2d(512, eps=1e-05, momentum=0.1, affine=True, track_running_stats=True)
      (convbn2): QConvBn2d(
        512, 512, kernel_size=(3, 3), stride=(1, 1), padding=(1, 1), bias=False
        (quan_w_fn): LsqQuantizer(bit=2, pos=1, neg=-1, norm=(False, 1e-05, 1.0), all_positive=False, symmetric=True, per_channel=True, apot=False )
        (quan_a_fn): LsqQuantizer(bit=3, pos=7, neg=0, norm=(False, 1e-05, 1.0), all_positive=True, symmetric=False, per_channel=False, apot=False )
        (bn): BatchNorm2d(512, eps=1e-05, momentum=0.1, affine=True, track_running_stats=True)
      )
      (downsample): Sequential()
      (relu2): ReLU(
        (quan_a_fn): LsqQuantizer(bit=16, pos=65535, neg=0, norm=(False, 1e-05, 1.0), all_positive=True, symmetric=False, per_channel=False, apot=False )
      )
    )
  )
  (avgpool): AdaptiveAvgPool2d(output_size=(1, 1))
  (fc): QLinear(
    in_features=512, out_features=1000, bias=True
…
